bitcoin_modelr.pt (torch_old, 15127 bytes, 4 tensors)

weight f4 [100, 15]
-0.35532868 -0.26398087 -0.111464195 0.3200446 -1.2943316 -0.2450869 -0.37655473 0.0019505188
-0.0015299758 0.23028265 -0.059209812 -0.13924518 0.33455274 0.055273376 -0.37589017 -0.19157982
0.100371614 -0.0122491885 0.47995627 -0.40319654 0.10247743 -0.17383775 0.068481125 -0.2264718
-0.18839844 0.20412034 -0.57677215 0.78285354 0.11715425 0.5019423 -0.43370453 0.057873905
0.31934264 0.85786057 0.67824763 0.16634312 0.08443196 0.16567118 0.012881951 0.02264147
0.10234032 0.35273138 0.32760885 -0.47720024 0.77311635 -0.10514222 0.12329719 -0.012624872
0.6605962 -0.3527653 0.2808646 -0.3645362 0.20699961 0.1603269 0.059994273 0.37961242
-0.25002834 0.28159153 -0.012939015 0.027267978 0.12806071 -0.17564707 -0.10934947 -0.8296377
0.9150423 -0.039807975 -0.05546129 0.15159501 0.05032912 -0.10443142 0.08114927 -0.26612988
0.0057549565 -0.08836483 0.66838074 0.52018046 0.27007225 -0.012091618 -0.34706104 0.8574118
-0.083040155 0.42073438 -0.2145708 -0.10015401 -0.03957761 0.010470433 -0.0652037 -0.39516994
-0.4271236 0.061834693 -0.17029057 0.25829002 -0.21066345 0.6156248 -0.05082083 -0.12929215
0.14928047 0.3407205 0.07864276 0.21251486 -0.07576013 -0.030773534 0.06913678 -0.09820439
0.3672086 0.4168398 0.1999038 0.3343708 -0.2683036 0.20232949 0.41557264 0.24997525
0.1451032 -0.42249307 0.05289174 0.21942893 -0.52875376 0.4217789 0.80772734 0.4432169
-0.29741582 0.0019290071 -0.21736419 0.73285097 0.23929925 0.12337292 -0.08490095 0.015134796
0.2133326 -0.14043815 -0.38358495 -0.34047443 0.33619282 -0.60696894 -0.13117406 0.2731625
0.25880912 0.11587093 -0.6559597 -0.3713109 0.13977464 0.30045077 0.19477344 0.0067533287
0.050773732 0.39139113 0.31504923 0.3557489 -0.3988143 -0.15781933 0.32936573 -0.0742239
0.11036999 -0.09732258 -1.0229386 0.6342257 0.18354471 -0.19730051 -0.0021165533 -0.60510683
0.07634631 0.12417502 -0.13917999 -0.78893995 0.30885804 -0.04750457 -0.02481899 -0.0181781
0.39804587 0.29461044 0.44437853 -0.1901563 0.26631027 0.011525043 -0.20446728 0.45324573
-0.2467908 -0.12911914 -0.07387889 -0.5672155 -0.04959885 0.25566822 0.055551678 0.6752669
0.8142682 0.3658638 -0.14602298 0.13564649 0.24074738 -0.20895064 -0.34559292 0.056031983
-0.5305785 0.18018797 0.1714234 -0.27395466 0.29510638 0.30063075 0.7355728 0.32200095
-0.055377897 -0.30757755 0.2982823 -0.03988113 0.10656072 0.5386466 -0.14459406 0.1214346
-0.24340422 -0.38784862 -0.16693674 -0.14075716 -0.067259185 0.29924148 -0.05663971 0.72577375
-0.12084306 -0.11683546 -0.59122705 -0.13617016 0.29410908 -0.20696256 -0.6865019 -0.52853113
0.0566431 -0.20450525 -0.14312126 0.008047644 0.4402685 -0.30732113 0.072447956 -0.15842527
-0.31678733 0.07859721 0.15155005 0.085127726 -0.6329553 -0.056816045 0.49259207 0.8468992
-0.011165248 -0.004050273 0.04960061 -0.08676845 -0.3435652 -0.76525706 0.15273742 -0.1844481
-0.22990556 0.006665998 -0.14030528 -0.6497688 -0.66065675 -0.25852597 1.3938884 -0.053767346
00000000: a4ed b5be 8028 87be 5747 e4bd e3dc a33e
00000010: a8ac a5bf 0ff8 7abe c8cb c0be 8da8 ff3a
00000020: 7889 c8ba 37cf 6b3e fd85 72bd 4a96 0ebe
00000030: 7f4a ab3e 5666 623d ad74 c0be 802d 44be
00000040: a28f cd3d d2b0 48bc d4bc f53e c76f cebe
00000050: b0df d13d 8602 32be d53f 8c3d 39e8 67be
00000060: 85eb 40be ec04 513e 57a7 13bf 1769 483f
00000070: 91ee ef3d 4a7f 003f 850e debe 300d 6d3d
00000080: e180 a33e c09c 5b3f a3a1 2d3f da55 2a3e
00000090: aaea ac3d b5a5 293e d20e 533c 9b7a b93c
000000a0: cd97 d13d 3599 b43e 59bc a73e 9753 f4be
000000b0: f4ea 453f ce54 d7bd 3d83 fc3d 8dd8 4ebc
000000c0: d51c 293f a79d b4be 7ccd 8f3e 7da4 babe
000000d0: b5f7 533e bc2c 243e 8ebc 753d 8f5c c23e
000000e0: b703 80be c42c 903e 2afe 53bc 1861 df3c
000000f0: 5922 033e d3dc 33be 9df2 dfbd 2363 54bf
00000100: 3640 6a3f b00d 23bd 612b 63bd b93b 1b3e
00000110: e825 4e3d 24e0 d5bd 9731 a63d 2d42 88be
00000120: 1394 bc3b 9ff8 b4bd 001b 2b3f 8c2a 053f
00000130: e946 8a3e ec1b 46bc fcb1 b1be 577f 5b3f
00000140: f510 aabd 7f6a d73e 73b8 5bbe 8c1d cdbd
00000150: 221c 22bd 2e8c 2b3c 8489 85bd b753 cabe
00000160: f2af dabe 6046 7d3d a760 2ebe 973e 843e
00000170: 29b8 57be 9699 1d3f 8129 50bd 2965 04be
00000180: fbdc 183e eb72 ae3e 750f a13d 7f9d 593e
00000190: 2128 9bbd c718 fcbc 9697 8d3d 621f c9bd
000001a0: c402 bc3e 076c d53e 95b3 4c3e a632 ab3e
000001b0: 175f 89be 762f 4f3e f0c5 d43e 83f9 7f3e
000001c0: ef95 143e 0351 d8be 02a5 583d fab1 603e
000001d0: 685c 07bf 67f3 d73e 38c7 4e3f 53ed e23e
000001e0: e346 98be bdd6 fc3a b894 5ebe 1f9c 3b3f
000001f0: dd0a 753e f1aa fc3d 8de0 adbd eff7 773c
00000200: dc73 5a3e 05cf 0fbe 3f65 c4be aa52 aebe
00000210: 7721 ac3e 5162 1bbf 7e52 06be f5db 8b3e
00000220: a182 843e bd4d ed3d faec 27bf 761c bebe
00000230: 1521 0f3e afd4 993e b072 473e 074b dd3b
00000240: 1ef8 4f3d 6b64 c83e 224e a13e b824 b63e
00000250: 6331 ccbe 649b 21be a0a2 a83e b302 98bd
00000260: a909 e23d 1051 c7bd a7ef 82bf 9e5c 223f
00000270: 25f3 3b3e 2509 4abe dfb5 0abb 48e8 1abf
00000280: 745b 9c3d 794f fe3d 3385 0ebe f8f7 49bf
00000290: a422 9e3e 2794 42bd 3251 cbbc 3dea 94bc
000002a0: abcc cb3e 2ed7 963e 9585 e33e 55b8 42be
000002b0: d259 883e 89d3 3c3c df5f 51be d30f e83e
000002c0: bab6 7cbe cf37 04be d14d 97bd 0935 11bf
000002d0: 2a28 4bbd f2e6 823e 288a 633d 4bde 2c3f
000002e0: e173 503f 8052 bb3e 0c87 15be eae6 0a3e
000002f0: 7b86 763e 28f7 55be 8ef1 b0be cb81 653d
00000300: fed3 07bf 3283 383e 9e89 2f3e c943 8cbe
00000310: 2f18 973e 46ec 993e 804e 3c3f 4fdd a43e
00000320: efd3 62bd ce7a 9dbe 75b8 983e 655a 23bd
00000330: 823c da3d bee4 093f 7710 14be b4b2 f83d
00000340: f53e 79be 1894 c6be 77f1 2abe a522 10be
00000350: 2fbf 89bd 2e36 993e 0aff 67bd 4fcc 393f
00000360: 917c f7bd 6e47 efbd a85a 17bf 3170 0bbe
00000370: 7795 963e feed 53be 97be 2fbf d14d 07bf
00000380: 9802 683d d369 51be 618e 12be 44da 033c
00000390: df6a e13e 3259 9dbe 985f 943d 3c3a 22be
000003a0: f331 a2be 93f7 a03d f02f 1b3e 7257 ae3d
000003b0: 5c09 22bf f1b7 68bd 0735 fc3e 63ce 583f
000003c0: 72ee 36bc 27b8 84bb 022a 4b3d a8b3 b1bd
000003d0: c7e7 afbe e3e7 43bf 3367 1c3e f6df 3cbe
000003e0: 5d6c 6bbe 726e da3b 30ac 0fbe 4057 26bf
000003f0: cd20 29bf 845d 84be ef6a b23f 263b 5cbd

bias f4 [100]
0.33664596 -0.124558724 0.039486997 0.31942242 -0.5260397 0.63865614 -0.0053278534 -0.9557336
0.23155251 0.29192 0.038184524 -0.22670284 -0.8153066 -0.3244636 0.059584793 0.08157739
-0.7965063 0.26157832 -1.045183 0.21607342 0.26444903 0.22488889 0.10127002 -0.65628004
0.006567657 -0.015729193 0.32474008 0.17260143 -0.3729778 -0.0870569 -0.31599605 -0.32158548
-0.50001216 -0.050186053 -0.5461288 0.060529973 0.2885788 0.44388887 -0.3078498 -0.29308203
-0.16068664 -0.36180788 0.080079354 -0.16218227 -0.03647218 -0.3199448 -0.17487529 -0.69545543
-0.1186052 -0.024574332 0.29075852 -0.18923345 0.047334343 -0.037757915 0.4694203 -0.15859383
-0.48831257 -0.19205107 -0.32739672 -0.41567048 -0.122060075 -0.041704305 0.3621843 -0.17287482
0.15017165 0.22786887 -0.086380824 -0.046979066 -0.07443527 0.37681392 0.14143085 -0.010312277
0.17466727 -0.4174565 0.33449057 0.041342963 -0.124237 -0.29297936 -0.069297634 0.081817396
-0.005773422 -0.016551144 0.011243122 -0.2970711 0.52599305 0.19535802 -0.8708173 -0.49334848
-0.13835274 -0.08262186 -0.03844097 -1.0616271 -0.07337047 0.06548495 0.034730997 0.2976968
-0.046558168 -0.12920554 -0.16256884 0.51606756
00000000: dc5c ac3e a518 ffbd 1ebd 213d 568b a33e
00000010: 8aaa 06bf f87e 233f 4695 aebb f5aa 74bf
00000020: 1a1c 6d3e 8a76 953e 6067 1c3d ca24 68be
00000030: efb7 50bf 1820 a6be 2f0f 743d 0c12 a73d
00000040: d6e7 4bbf 98ed 853e 8ec8 85bf 5a42 5d3e
00000050: dd65 873e 4649 663e a866 cf3d f801 28bf
00000060: 8035 d73b 82da 80bc 5544 a63e 6ebe 303e
00000070: f2f6 bebe e34a b2bd 3cca a1be daa6 a4be
00000080: cc00 00bf e48f 4dbd 19cf 0bbf 47ee 773d
00000090: 9ac0 933e 6745 e33e 7d9e 9dbe d90e 96be
000000a0: 0a8b 24be e23e b9be a500 a43d 1c13 26be
000000b0: da63 15bd cecf a3be 8212 33be 5e09 32bf
000000c0: 48e7 f2bd 1c50 c9bc 4dde 943e 6ac6 41be
000000d0: a8e1 413d 0ba8 1abd dc57 f03e 6c66 22be
000000e0: 1b04 fabe 09a9 44be 8ba0 a7be c3d2 d4be
000000f0: a2fa f9bd 22d2 2abd 3870 b93e 1906 31be
00000100: 99c6 193e 7556 693e 6ee8 b0bd 1f6d 40bd
00000110: 8571 98bd c1ed c03e 40d3 103e d3f4 28bc
00000120: fadb 323e dcbc d5be 5942 ab3e 3d57 293d
00000130: f86f febd 6401 96be ebeb 8dbd e18f a73d
00000140: f92e bdbb 4496 87bc 1235 383c b419 98be
00000150: 7ba7 063f ef0b 483e e2ed 5ebf 2c98 fcbe
00000160: 57ac 0dbe a635 a9bd 4774 1dbd 66e3 87bf
00000170: 4243 96bd f91c 863d 1742 0e3d b76b 983e
00000180: c7b3 3ebd 754e 04be 7278 26be 011d 043f

weight f4 [2, 100]
-0.47953752 -0.3070128 -0.53043735 -0.39229855 1.8031921 0.51236296 -0.2813754 1.2647128
-0.48416305 0.8949933 1.1622158 -0.24478526 -0.7467762 -0.49783292 -1.0247983 -0.21709427
1.1891558 -0.2749263 -1.1650664 -0.22870003 -0.27894437 0.43264404 0.3083919 0.7141812
-0.83212084 0.65704316 -0.3631879 0.41104728 0.65364355 0.39860588 0.5355649 0.36398527
0.4483058 -0.29251093 0.48042676 0.57109183 0.30508256 -0.8663693 -0.45678166 0.48965788
-0.05417971 0.78347725 -0.6064035 0.3428152 -0.68117535 -0.65518385 -0.25026253 0.4431516
-0.89797366 0.53994244 0.2092815 1.6623045 0.7068308 0.6069737 0.24039893 0.49714786
-0.72937524 0.8681046 0.27940917 -1.6516856 0.39674976 0.57917696 -0.86250055 -0.6434245
-0.4749003 0.6530137 -0.7056482 -0.3929719 -1.595626 -0.4967891 -0.51568526 0.12867533
0.6042332 1.6172236 -0.69377434 0.33827624 0.31382927 -0.61346215 -0.19789737 -1.754248
-0.3747565 0.7842601 0.51780003 0.4591581 -0.28617713 -0.3084409 1.2066914 -1.0870332
-0.49150425 -0.27981165 0.2657972 1.6486894 -0.079263136 -0.11494053 1.0409474 -0.7624897
0.121160805 -0.17934711 -0.32125112 0.7105744 0.4621348 0.44534037 0.6198821 0.3564437
-1.7495538 -0.42538002 0.31006202 -1.1510708 0.35257748 -1.0569553 -1.2731686 0.18082066
0.71025026 0.43591443 0.90464836 0.40375546 -1.2298607 0.15681353 1.0437219 0.18154477
0.39290062 -0.37894583 -0.2552008 -0.7453226 0.7840537 -0.62991285 0.3850144 -0.3698385
-0.6622155 -0.4021045 -0.48606113 -0.33319807 -0.55614686 0.28340504 -0.42770377 -0.4696926
-0.3325154 0.89467853 0.471956 -0.51338845 0.012909545 -0.65840155 0.6316404 -0.22949107
0.61669654 0.6308918 0.41001853 -0.54709053 0.8406263 -0.43268377 -0.21296832 -1.6422671
-0.7955493 -0.60853094 -0.28370923 -0.54699177 0.701801 -0.8423648 -0.40530434 1.6842831
-0.45958173 -0.4708144 0.95323247 0.52872777 0.38230032 -0.7081617 0.77818704 0.36091664
1.6248405 0.6614606 0.50260836 -0.12549725 -0.6449742 -1.4835596 0.6771191 -0.368395
-0.2027556 0.68151253 0.27433792 1.7355629 0.29181126 -0.6078213 -0.5724462 -0.59694046
0.32406753 0.32945016 -1.1617856 1.1788002 0.49935326 0.27504158 -0.22487892 -1.6392012
0.2301759 0.099202126 -1.076339 0.838171 -0.2121628 0.19713795 0.35864797 -0.8520842
00000000: f185 f5be c830 9dbe beca 07bf 5bdb c8be
00000010: 00cf e63f 382a 033f 7010 90be 1ce2 a13f
00000020: 38e4 f7be 481e 653f 7dc3 943f fda8 7abe
00000030: ba2c 3fbf f5e3 febe 972c 83bf f64d 5ebe
00000040: 4236 983f 24c3 8cbe e520 95bf 5730 6abe
00000050: ccd1 8ebe 8583 dd3e 8be5 9d3e 94d4 363f
00000060: df05 55bf fb33 283f c4f3 b9be ca74 d23e
00000070: 2f55 273f 1216 cc3e c81a 093f 475c ba3e
00000080: 5688 e53e fec3 95be 7ffa f53e 1333 123f
00000090: c833 9c3e 61ca 5dbf 49df e9be 70b4 fa3e
000000a0: 8beb 5dbd f791 483f 433d 1bbf 7985 af3e
000000b0: 8261 2ebf 21ba 27bf 6922 80be c4e4 e23e
000000c0: 9ae1 65bf ab39 0a3f e44d 563e 65c6 d43f
000000d0: ddf2 343f a162 1b3f 232b 763e 2a8a fe3e
000000e0: 56b8 3abf 1a3c 5e3f b80e 8f3e 6f6a d3bf
000000f0: c922 cb3e f144 143f d6cc 5cbf 78b7 24bf
00000100: 2226 f3be e82b 273f 5ca5 34bf 9d33 c9be
00000110: 793d ccbf 245b febe f303 04bf 77c3 033e
00000120: 07af 1a3f 2f01 cf3f 329b 31bf 8b32 ad3e
00000130: 3bae a03e db0b 1dbf 9ca5 4abe 338b e0bf
00000140: 15e0 bfbe 45c5 483f 8b8e 043f c516 eb3e
00000150: cf85 92be f7eb 9dbe dd74 9a3f e723 8bbf
00000160: 72a6 fbbe 7943 8fbe 9216 883e 4108 d33f
00000170: b654 a2bd f165 ebbd c43d 853f 8632 43bf
00000180: 2823 f83d c5a6 37be 077b a4be 34e8 353f
00000190: ef9c ec3e a703 e43e 98b0 1e3f ca7f b63e
000001a0: 61f1 dfbf 69cb d9be 73c0 9e3e 4a56 93bf
000001b0: 0985 b43e 504a 87bf 30f7 a2bf 0d29 393e
000001c0: f6d2 353f 2d30 df3e 0997 673f 09b9 ce3e
000001d0: 136c 9dbf ba93 203e ae98 853f dfe6 393e
000001e0: 452a c93e 3005 c2be aea9 82be 76cd 3ebf
000001f0: beb7 483f f841 21bf 9c20 c53e 795b bdbe
00000200: f486 29bf a4e0 cdbe 01dd f8be f098 aabe
00000210: a45f 0ebf 771a 913e fdfb dabe 8c7b f0be
00000220: 753f aabe a709 653f 38a4 f13e 6d6d 03bf
00000230: 8e82 533c 018d 28bf 2fb3 213f b5ff 6abe
00000240: d3df 1d3f 2082 213f f3ed d13e 200e 0cbf
00000250: 4933 573f ba88 ddbe 5e14 5abe cf35 d2bf
00000260: 1ea9 4bbf afc8 1bbf 5642 91be a707 0cbf
00000270: 3ba9 333f 38a5 57bf 0d84 cfbe 9796 d73f
00000280: 4c4e ebbe 960e f1be 0b07 743f b45a 073f
00000290: debc c33e 164a 35bf 4437 473f 11ca b83e
000002a0: c6fa cf3f 7b55 293f f1aa 003f 5a82 00be
000002b0: 071d 25bf 48e5 bdbf ad57 2d3f 459e bcbe
000002c0: 2a9f 4fbe 9b77 2e3f 0576 8c3e ed26 de3f
000002d0: 4968 953e 2d9a 1bbf d68b 12bf 17d1 18bf
000002e0: 2eec a53e b1ad a83e 64b5 94bf ede2 963f
000002f0: 3bab ff3e 40d2 8c3e a946 66be 58d1 d1bf
00000300: 3bb3 6b3e 7c2a cb3d 7ac5 89bf 6092 563f
00000310: 3441 59be 88de 493e b5a0 b73e 3122 5abf

bias f4 [2]
0.04966105 -0.01225843
00000000: 6369 4b3d 95d7 48bc
